NCF(
  (user_embedding): Embedding(300000, 16)
  (item_embedding): Embedding(200000, 16)
  (misc_stack): Sequential(
    (0): Linear(in_features=23, out_features=32, bias=True)
    (1): ReLU()
    (2): Dropout(p=0.1, inplace=False)
  )
  (cast_embedding): Embedding(200000, 8)
  (cast_stack): Sequential(
    (0): Linear(in_features=40, out_features=64, bias=True)
    (1): ReLU()
    (2): Dropout(p=0.1, inplace=False)
    (3): Linear(in_features=64, out_features=32, bias=True)
    (4): ReLU()
    (5): Dropout(p=0.1, inplace=False)
  )
  (language_embedding): Embedding(100, 4)
  (combiner): Sequential(
    (0): Linear(in_features=68, out_features=32, bias=True)
    (1): ReLU()
    (2): Dropout(p=0.1, inplace=False)
  )
  (fc1): Sequential(
    (0): Linear(in_features=64, out_features=128, bias=True)
    (1): ReLU()
    (2): LayerNorm((128,), eps=1e-12, elementwise_affine=True)
    (3): Dropout(p=0.1, inplace=False)
  )
  (fc2): Sequential(
    (0): Linear(in_features=128, out_features=32, bias=True)
    (1): ReLU()
    (2): LayerNorm((32,), eps=1e-12, elementwise_affine=True)
    (3): Dropout(p=0.1, inplace=False)
  )
  (output): Linear(in_features=32, out_features=1, bias=True)
)('all_movieIds', array([  31, 1029, 1061, ...,  129, 4736, 6425]))